models/viability_approximator_distilled.pth (torch, 71617 bytes, 5 tensors)

net.0.weight f4 [128, 2]
000000 ae a9 97 3e b7 c7 f6 3e e9 3d ba bd 32 8f 62 3d
       0.29621643 0.48199245 -0.0909384 0.055312343
000010 c5 82 70 be 4d 9c 27 3d c4 0d 0c 3f 47 c0 1d bf
       -0.23487385 0.040920544 0.54708505 -0.61621517
000020 50 3a 03 3f 40 8e 0f bf b8 0a 2c 3f 03 f4 08 3f
       0.5126085 -0.5607643 0.67203856 0.5349733
000030 c2 a0 30 3e d3 16 c7 3e bc f1 bc bd 25 cb ef bd
       0.17248824 0.388846 -0.09225795 -0.117086686
000040 15 ea 3f 3e 2d f5 02 3e 33 8b 58 3e f4 c1 08 be
       0.18741639 0.1278884 0.2114685 -0.13355237
000050 67 86 69 3e 49 c1 d3 be 47 39 a8 be e5 e1 cf 3e
       0.22805177 -0.41358402 -0.328562 0.4060203
000060 7a 53 b2 bb 50 23 ac be 61 ba 21 bf 62 9e b9 be
       -0.00544208 -0.3362069 -0.63175017 -0.3625365
000070 26 af e2 3d 79 e0 bb be 22 14 a2 be a5 f6 20 bf
       0.11068563 -0.36694697 -0.31655985 -0.6287635
000080 64 48 03 bf bd cf d4 be 96 be 8f bd 94 f5 54 3e
       -0.51282334 -0.41564742 -0.07018773 0.20796806
000090 47 33 7a be 76 45 11 bf e8 0f f5 be 94 92 b4 be
       -0.24433623 -0.56746614 -0.47863698 -0.3526808
0000a0 13 03 02 3f e6 91 1e bf d3 42 16 be f7 65 8d be
       0.5078594 -0.61941373 -0.14673929 -0.27616856
0000b0 7f 93 53 3e 6e 71 8e 3e b9 00 ef be 20 c1 79 3e
       0.20661734 0.27820915 -0.4668024 0.24390078
0000c0 ad 90 28 3f 63 5b b6 be ab 6c 37 3d 34 78 95 3e
       0.6584576 -0.35616598 0.04478137 0.2919327
0000d0 22 e2 28 3f 6b 2e 2f 3f 59 72 28 3f 74 d3 30 bf
       0.6597005 0.68430203 0.6579948 -0.6907265
0000e0 13 d4 03 3f e6 77 59 be c8 3a f6 3e 1f 49 00 3f
       0.51495475 -0.21237144 0.48091722 0.50111574
0000f0 42 6c fd be f0 5d cb 3e 4a b8 1c be 95 4c a3 3e
       -0.49496657 0.39720106 -0.15304676 0.31894365
000100 58 88 30 bf 27 4c 0e 3f 73 a8 1f bd 5d 8a 80 3e
       -0.68958044 0.5558495 -0.038979005 0.25105563
000110 a9 e0 39 be 65 ec 19 bf 97 37 2d be 35 ea 32 bf
       -0.18152107 -0.60126334 -0.16915737 -0.6988862
000120 d7 9b ea 3e 9f c3 34 bf cc 1e c8 be d8 25 e0 3d
       0.4582202 -0.70610994 -0.39085996 0.10944718
000130 10 09 1f 3f b8 d5 ba 3e ae 6c 89 be 60 24 16 3f
       0.62123203 0.3649118 -0.2684073 0.58649254
000140 ab 38 15 bf 4c 7e 13 3f 5e b9 2d 3f 0c a5 9c 3e
       -0.58289593 0.5761459 0.6786097 0.3059467
000150 fa 91 a3 3e d6 60 a2 3d 2f ac a1 3e bb e6 bc be
       0.3194731 0.07928626 0.31576678 -0.36894783
000160 17 9d 16 be 89 bd 63 be 33 a6 92 3c 28 81 02 3f
       -0.14708363 -0.2224027 0.017901516 0.50978327
000170 e8 ec 3a be d5 41 c9 be c3 28 8a 3e 44 30 1c bf
       -0.18254435 -0.39308038 0.26984224 -0.6101115
000180 7d b3 10 bf a2 59 dd 3e ee 9b 9e 3b 5e a7 15 bf
       -0.5652388 0.43232447 0.0048403656 -0.5845851
000190 2c 4f 30 bf cb 5f 07 3e 8b 1a 13 bf 9c 3b 77 be
       -0.68870807 0.13220136 -0.57462376 -0.24143833
0001a0 e6 21 22 bf 26 07 c0 be 83 35 9e be 88 45 94 bd
       -0.63332975 -0.37505454 -0.309002 -0.072398245
0001b0 f0 a8 22 3f 9d f7 0e bf 26 86 2c bd 79 55 2a 3f
       0.6353903 -0.5584658 -0.04212012 0.6653667
0001c0 ad 1e 45 bc 76 4f 39 3e 94 d6 02 3f e8 f5 75 be
       -0.012031239 0.18096718 0.5110867 -0.24019587
0001d0 d3 dd 2c bf ac 34 c7 be 01 4b a7 3d 55 b0 92 3d
       -0.67525977 -0.38907373 0.08168603 0.07162539
0001e0 f9 c3 08 bf 1d fa 96 be da de aa be 25 c2 20 bd
       -0.5342403 -0.29487696 -0.33373147 -0.03924765
0001f0 bb d4 93 be 60 0d 62 be c5 f9 f9 be 77 61 60 be
       -0.28873238 -0.22075415 -0.48823372 -0.2191218
000200 19 61 00 bf 6e a5 0a 3f b3 15 77 be 15 4f 2b 3f
       -0.5014816 0.54158676 -0.24129371 0.66917545
000210 db b1 b2 bd 81 c1 46 3e f8 fc ce be 40 99 0f 3f
       -0.087253295 0.19409753 -0.40427375 0.56093216
000220 30 ca 87 be 2a ba 10 bf 03 f4 99 be b6 1e 2a bf
       -0.26521444 -0.56534064 -0.3006898 -0.6645311
000230 49 68 72 bd 40 5f fe be 0a e9 24 3f 8a 46 12 bf
       -0.059181485 -0.49682045 0.6441809 -0.57138884
000240 b3 1e bc 3e 06 a5 89 be 69 e1 1c 3f 78 ab 48 3d
       0.36742172 -0.26883715 0.6128145 0.04899165
000250 29 cf aa 3e 69 b1 07 3f 1b 1f e1 3e 30 95 0f 3f
       0.33361176 0.5300508 0.43969044 0.5608702
000260 3b a5 0a bf e3 bc 0c 3f 6e 94 c1 be 57 95 a9 be
       -0.5415837 0.5497572 -0.37808555 -0.3312175
000270 49 9f fc 3e 1d 83 8e 3d 82 b2 d3 be 03 00 9d 3e
       0.49340275 0.069586016 -0.41347128 0.3066407
000280 01 3c 2b 3e 6b f2 12 3f 9a ea cd be 19 d0 31 3f
       0.16722108 0.5740115 -0.4021805 0.69458157
000290 00 ec 00 bf 1b a2 53 be 04 59 25 3f 28 c2 af be
       -0.5036011 -0.20667307 0.6458895 -0.34327817
0002a0 ea d2 b1 3d 84 30 15 3d 8b f2 e1 be 5a 20 2b 3f
       0.08682807 0.03642322 -0.44130358 0.6684624
0002b0 91 57 08 3f 86 e2 17 3f 28 bb 07 3f b7 3b 53 be
       0.53258616 0.5933002 0.5301995 -0.20628248
0002c0 44 76 02 3e a8 6b e1 bb 72 6b a8 3e 10 a4 31 3f
       0.12740427 -0.0068792887 0.32894474 0.69390965
0002d0 b9 d4 f0 be 20 e7 28 bf 39 64 02 bf 82 01 07 bf
       -0.47037295 -0.6597767 -0.5093418 -0.52736676
0002e0 d2 f3 d1 bd 80 cb 2b 3f b6 07 ff be 56 31 e0 3e
       -0.10251583 0.6710739 -0.4981057 0.4378764
0002f0 5f ce 00 bf d2 ee 27 3f c5 93 df 3e dd 36 9c bd
       -0.503149 0.65598786 0.43667427 -0.07627652
000300 a8 dd 7c be d5 8a e0 be 1b 4f f6 3d 5a da 48 3e
       -0.2469393 -0.4385592 0.12026807 0.19614545
000310 df 60 a0 3d 9e c2 d2 3e 48 4e 89 3e a4 e7 10 3e
       0.07830977 0.41164106 0.26817536 0.14150864
000320 8c cd 0e bf a8 34 34 be c6 8b 8d 3d 4f 8b 5d 3e
       -0.5578239 -0.17598212 0.06911425 0.21635173
000330 4c ea ef 3e e2 fa af be c4 cf 87 be 01 01 1c bf
       0.46858442 -0.34371096 -0.265257 -0.6093903
000340 ec 1a 1d 3f 03 20 14 3f bb d4 fe be 5f eb c1 be
       0.61369205 0.57861346 -0.49771675 -0.37874886
000350 d0 98 02 3f 87 74 dd be 85 0b a8 be ff 4f 29 3f
       0.51014423 -0.43252966 -0.3282129 0.6613769
000360 2e cf b1 3e ea 2a 02 be 82 1d 3c 3e 02 f2 11 bf
       0.34728378 -0.12711683 0.18370631 -0.570099
000370 46 ab 1a be a4 45 16 bf 04 5b f0 bc 5a 01 88 3e
       -0.15104398 -0.58700013 -0.029340275 0.2656353
000380 00 3c e6 3c 9c 22 8a be 79 9f 25 bf 00 7b 09 3e
       0.028104782 -0.2697953 -0.6469646 0.13425827
000390 77 0a 12 3e b8 d1 2d 3f 6b 67 d1 3e 1a 9b 10 3f
       0.14261805 0.6789813 0.40899214 0.56486666
0003a0 73 f3 f4 3e 23 4e 1d 3f a6 84 1a 3e 72 e3 00 3f
       0.47841987 0.6144735 0.15089664 0.50347054
0003b0 1e 97 fd 3c 92 3e 13 bf 5e fc 01 3f bd d3 d8 bd
       0.030955847 -0.5751735 0.50775707 -0.10587261
0003c0 1d dc 2b bf 48 0d f6 3e 7e da 3c 3e 02 33 fd 3c
       -0.6713274 0.48057008 0.18442723 0.030908111
0003d0 73 33 b1 3e 8b fa a9 be ac d9 31 3f 01 82 1e 3f
       0.34609565 -0.33198962 0.69472766 0.6191712
0003e0 5a 66 0f 3f 39 88 0c bf ae 93 19 3f 26 72 04 bd
       0.5601555 -0.5489536 0.59990966 -0.032335423
0003f0 02 3d 0b 3f f2 8d 14 3f e8 fd 12 bf f9 cb d8 bc
       0.54389966 0.5802909 -0.5741868 -0.02646445

net.0.bias f4 [128]
000000 b6 08 89 3e ac c0 2f be 52 4d 2f bf 96 d5 25 bf
       0.26764458 -0.17163342 -0.68477356 -0.6477903
000010 bd d3 ed 3e 06 de 1e be a9 b0 70 3e f1 69 27 3f
       0.46450606 -0.15514383 0.2350489 0.6539603
000020 f1 1b 70 be ff 7c 3d 3d c0 93 52 3e 5e a3 12 3e
       -0.23448159 0.046261784 0.20564175 0.14320132
000030 94 5b 2b 3f 37 4e 7a be e4 e8 a2 be e3 35 a0 3d
       0.6693661 -0.24443899 -0.31818306 0.07822778
000040 f4 18 0f bf 1e 38 03 bf 4f 9a 71 3e 43 44 13 3f
       -0.5589745 -0.51257503 0.2359402 0.57526034
000050 d6 be 78 3e ee 4c ec 3e 1e f4 1b bf 11 72 14 bf
       0.24291548 0.46152443 -0.6091937 -0.5798655
000060 9d 30 c4 3e 9e fd 96 be 40 56 90 3e be ea c5 be
       0.3831834 -0.2949037 0.28190804 -0.38655657
000070 78 48 d9 3d a2 1c 30 bf 51 9a 8d 3e 96 3e f7 be
       0.106095254 -0.6879369 0.27656797 -0.48289937
000080 44 ad 15 3f 9e d7 8a be 57 76 0b 3f 6c f7 d6 3e
       0.5846751 -0.27117628 0.5447745 0.41985643
000090 7f 4d 0b 3d e4 9b e9 3e 61 a9 21 3e 51 9b 5d 3e
       0.034009453 0.45626748 0.15787269 0.2164128
0000a0 50 04 ca 3e 9f 49 26 be 9f 82 c2 be 0b 2c 85 3d
       0.39456415 -0.16239022 -0.3799028 0.06502541
0000b0 1d d0 9a 3e 4c 62 0c 3f d1 89 02 3e 76 4c 9b be
       0.30236903 0.5483749 0.12747885 -0.30331773
0000c0 89 59 08 3d 5c a6 9e 3e 29 5d 96 3e 8e 24 08 3f
       0.033288512 0.30986297 0.2936795 0.5318078
0000d0 dc 1c 30 3f e9 1e 1a 3f 9a 77 0c 3e 92 ec 13 3d
       0.68794036 0.60203415 0.137175 0.036114283
0000e0 48 a9 f1 be 6c 57 2f 3f 2f c2 34 3d 1a a1 93 bc
       -0.47199464 0.6849277 0.0441305 -0.018021155
0000f0 d1 80 b7 bd ad 7e dc be 0e 43 19 bd 69 95 10 bf
       -0.08960117 -0.43065396 -0.037417464 -0.5647798
000100 28 e6 07 3f cf 83 3f 3e 83 48 2c 3f 1a 36 25 3f
       0.53085566 0.18702625 0.67298144 0.6453568
000110 09 6e 07 bf 11 3c 4d bd 49 ee 59 3e db bb a2 be
       -0.52902275 -0.050106112 0.21282305 -0.31783947
000120 09 e9 19 3f 47 1f 87 be 4d a9 1a bf a6 8c 10 bf
       0.6012121 -0.2639105 -0.6041458 -0.5646461
000130 87 08 08 3e 4c 44 0a bf bd a1 c5 be 9d 2f 04 3f
       0.13284503 -0.5401046 -0.3859996 0.5163515
000140 6c 16 91 3e 77 ae 30 bf aa a4 ea 3d b2 20 e5 be
       0.2833742 -0.6901621 0.114571884 -0.44751507
000150 bb 19 0d be b8 0c 26 3f 8e e8 1c 3f b2 fd 31 3f
       -0.13779347 0.6486316 0.6129235 0.69527733
000160 48 ee 13 3f 2d 5e 5a bd 51 18 75 3e 09 5a 2a bf
       0.57785463 -0.05331247 0.23935057 -0.6654363
000170 70 a5 16 bf be 0d 63 3d 4b 54 1b bf bc 4c 87 3e
       -0.5884619 0.055433027 -0.60675496 0.2642573
000180 fd 10 53 be fe 01 31 3f 9a fc 77 bc d0 08 2f 3f
       -0.2061195 0.69143665 -0.0151359085 0.6837282
000190 19 8c 4b 3d 73 10 ea be a1 5a af 3e 1a ee 66 be
       0.049694154 -0.45715675 0.34248832 -0.22551766
0001a0 31 fa 27 bf fc 74 d8 be b6 ae f2 be 29 46 09 3e
       -0.65616137 -0.42276752 -0.4739892 0.1340567
0001b0 19 55 33 3f d0 3e 19 bf 77 a1 99 3e bc 28 b7 be
       0.70051724 -0.5986147 0.30006 -0.35773265
0001c0 35 fb 2f bf 84 0c 45 3d 7c 53 31 bf a8 a3 e9 be
       -0.68742687 0.04810764 -0.6926801 -0.45632672
0001d0 be 72 68 be 70 09 0c bf 63 4a 2b be 59 bf 11 3f
       -0.2270002 -0.547019 -0.16727595 0.569326
0001e0 08 3c 06 bf de fa 09 3f 1a 4a 6d 3e ed 16 c1 3c
       -0.5243535 0.5389842 0.23172799 0.023570502
0001f0 68 77 17 3e f3 19 10 3f f8 32 7c be a2 1f c8 3e
       0.14791644 0.56289595 -0.24628818 0.39086634

net.2.weight f4 [128, 128]
000000 36 60 57 bc d7 c4 90 3d 3c 26 77 bc 23 21 b1 bd
       -0.013145497 0.07068794 -0.015084799 -0.086488985
000010 d3 ea 4f 3d 28 15 41 3d 08 a8 42 bd 5e 84 60 ba
       0.050761055 0.047139317 -0.04752353 -0.0008564646
000020 13 c0 70 3d 1f fe a2 bd 17 89 a6 bd 82 b7 8c bd
       0.058776926 -0.07958626 -0.081316166 -0.06870939
000030 c5 e8 83 bd 9b 3c 0e bd 98 01 b2 bd 1c 3c 60 bd
       -0.06440882 -0.034725767 -0.0869171 -0.054744825
000040 6a f1 80 bd 57 d6 22 bd ad 48 af 3b 22 2f 5f bb
       -0.06296046 -0.03975519 0.00534924 -0.0034055193
000050 6e bc a3 3d 06 86 05 bd 67 e6 53 39 06 47 0a bd
       0.079949245 -0.032598518 0.0002020836 -0.03375914
000060 a8 03 9f 3d 43 9c be bd 80 2e 9e bc d5 67 53 3d
       0.07764369 -0.09307148 -0.019309282 0.051612694
000070 69 18 ec 3c 07 c4 59 3c f5 22 81 bd 5d 66 61 bd
       0.028820233 0.0132913655 -0.06305496 -0.05502926
000080 27 48 9d bd aa 02 99 bc 55 9f 5f bd 23 16 5e bd
       -0.076797776 -0.018678028 -0.05459531 -0.05422033
000090 cb 4c a2 bc 0f 28 7a bd 73 a8 fe 3c 13 9a a9 bd
       -0.019812008 -0.06107336 0.031086182 -0.082813405
0000a0 c2 e6 8f 39 2c d8 da 3c 4a ef 98 bd 88 46 78 bb
       0.00027447013 0.026714407 -0.07467516 -0.0037883837
0000b0 47 9e f7 3c 76 ff a9 3d e7 47 a2 3d e6 08 08 bd
       0.03022684 0.083006784 0.079238705 -0.03321161
0000c0 bd dd 03 bd 26 ad 86 bc bd ee 1b 3d b1 3f 1b bd
       -0.032193888 -0.016439985 0.038069475 -0.037902538
0000d0 78 e4 73 bd 06 4a 8e bb 9d dc 82 3c ec c8 bb 3c
       -0.059544057 -0.0043423204 0.015974337 0.022922955
0000e0 1f fc c7 3c 66 9c 88 3d 23 e4 32 3d f1 19 16 bc
       0.024412213 0.06670456 0.0436746 -0.009161458
0000f0 ae a6 39 3c b8 e5 9b bd 1d 0a 96 bd b0 b9 38 bd
       0.011331243 -0.07612175 -0.07326148 -0.04509896
000100 ec 67 31 bd 2c 3b 7b bd 15 e7 16 3d 7a 10 17 3d
       -0.043312 -0.061335728 0.03684147 0.036880948
000110 c3 c7 71 bd 30 3c 95 3d 04 36 65 bd 79 ac 32 3d
       -0.0590284 0.072868705 -0.055959716 0.043621514
000120 4f ad fb 3c 01 ba 14 3d 17 9a fe bb a8 9e a9 3d
       0.030722288 0.0363102 -0.007769834 0.082822144
000130 b1 73 bd 3c 21 67 8f bd b1 2e 8c 3d bf 5e 82 3d
       0.023126455 -0.07002092 0.06844843 0.06365728
000140 de 62 54 3c cd 27 a0 3d fc 50 82 bd 29 d9 98 3d
       0.012963025 0.078200914 -0.06363103 0.07463295
000150 a0 62 62 3d 79 e1 3c bd d5 92 71 3d 62 8b 09 bd
       0.055269837 -0.046113465 0.05897792 -0.03358019
000160 06 cd 83 bd f6 59 00 bd a2 9b 59 bb a4 10 2c 3d
       -0.064355895 -0.031335793 -0.0033204337 0.042008057
000170 6e bc a3 3d f4 b0 1e 3c ee 6e 90 3d de 05 eb 3a
       0.079949245 0.009685744 0.07052408 0.0017930826
000180 e5 eb d5 bc 90 2b b6 3b 44 4d ab 3d 7e f5 bf 3b
       -0.02611346 0.0055593923 0.083643466 0.0058581224
000190 c8 8a 01 bd 21 18 6a bd c5 a5 00 3d e2 a7 28 bd
       -0.031626493 -0.057151917 0.03140809 -0.04117573
0001a0 0c d4 44 bd a8 fc ad bb aa 80 9d bd 8a e9 8d 3c
       -0.048053786 -0.00530966 -0.07690556 0.017323274
0001b0 87 56 03 3d 5a 0b 0e 3d 89 83 1b bd ba 9f 2d bd
       0.03206494 0.034678794 -0.03796724 -0.042388655
0001c0 cf ef 11 bc 6a 6d 91 3d 48 89 b4 3c 39 63 b0 bd
       -0.0089072725 0.07100947 0.022038117 -0.08612675
0001d0 73 c5 82 3d cc 74 82 ba 89 d9 09 3c 6a 65 8c 3c
       0.06385317 -0.0009953021 0.008413681 0.017138202
0001e0 5a e8 3b 3d e9 dd 18 3c 91 d6 96 3d 9c f4 a7 bd
       0.045875885 0.009330251 0.07365144 -0.082009524
0001f0 3e 24 12 3d 06 70 b3 bb 3f 05 54 bd 5f f2 d4 ba
       0.035679094 -0.0054760007 -0.051762816 -0.0016246549
000200 af 12 93 3d d8 64 dc bb 75 92 8a 3d 32 b0 08 3d
       0.07181298 -0.0067258887 0.06766216 0.033371158
000210 f6 55 a4 3c 6b 00 9f 3d 2a 4c 8c bd 11 ba 44 bd
       0.02006052 0.077637516 -0.06850465 -0.04802901
000220 1e 28 9f 3d 54 56 6a bd 4f f0 07 3c 2d 58 88 3d
       0.077713236 -0.057211235 0.00829704 0.06657443
000230 85 99 c9 bc e2 0e dd bc 35 86 8d bd 22 48 97 bd
       -0.024609337 -0.026984636 -0.069103636 -0.07386805
000240 4e 7d 84 3d bd 5f fe 3c 6b 9f af bd dd 32 b2 bd
       0.064692125 0.031051511 -0.085753284 -0.08701108
000250 4a f3 6d 3d 9f 25 81 3d 70 42 11 bc 02 32 a8 bd
       0.058093347 0.06306004 -0.008865938 -0.08212663
000260 ca f5 fc bc 58 3f ad bd 7b 5f 9a 3d 3d 51 81 bd
       -0.03087892 -0.084593475 0.07537743 -0.06314323
000270 8d 74 4e bd 13 2a ce bc a6 a8 1b bd 0d b5 37 bd
       -0.05040412 -0.025166547 -0.038002633 -0.044850398
000280 8c ca 12 bd 13 05 28 bd 62 aa a5 3d 8e 34 43 bb
       -0.035837695 -0.041020464 0.080891386 -0.0029785964
000290 bd 01 41 bd 13 c2 b9 bd 49 e5 4f bd 37 c0 02 3d
       -0.0471208 -0.0907022 -0.050755773 0.03192159
0002a0 7f d5 9f 3b 30 d6 3e 3c 31 84 93 3d 55 6f c8 bc
       0.0048777456 0.011647746 0.07202948 -0.02446715
0002b0 99 93 8b 3d 17 b2 08 3c a8 b8 e5 3c c4 c0 41 bd
       0.068152614 0.008343241 0.028042153 -0.047302976
0002c0 97 62 81 bd 1d 84 a0 bb ae b2 b0 3a b6 16 8f 3c
       -0.06317633 -0.0048985616 0.0013480985 0.017466884
0002d0 17 0e d0 3c 74 64 19 3c 9f b9 56 3b 32 4d 26 3d
       0.025397344 0.009362329 0.0032764447 0.040600963
0002e0 92 9a 76 bd 14 3b d8 bc 56 cd 8d bc b6 2f 2b bd
       -0.060206003 -0.026395358 -0.017309826 -0.041793548
0002f0 eb 1c f1 3c a8 e3 39 bd 77 f0 75 3d 09 a9 41 3d
       0.029432734 -0.045383126 0.06004378 0.047280345
000300 85 41 08 bd 6a 25 49 bd 17 a9 ea bc 48 7c 57 bd
       -0.03326561 -0.049107946 -0.028645081 -0.05260876
000310 2e 88 a4 bd 1a 98 4b bd 6b 62 94 bd bd 4e 1d bc
       -0.08033787 -0.049705602 -0.07245334 -0.009601292
000320 0d 1f 03 3c b9 2b 1e bd 5f 75 b2 bb 90 85 bf bc
       0.008003009 -0.038615916 -0.0054461206 -0.023379117
000330 25 3f 83 bd e8 4c b2 3d fe 9a 92 3c 68 d0 8f bd
       -0.06408528 0.08706075 0.017896172 -0.07022172
000340 e7 a0 9b bd 9e 88 a6 bb 98 8a 8d 3d 67 3c aa 3d
       -0.07599049 -0.005082204 0.069112 0.08312302
000350 0e 3c 2b bd 02 8a 33 bc 97 f5 c1 bb e2 da 8e bd
       -0.04180532 -0.010958197 -0.005919169 -0.06975342
000360 d7 9c 47 3d a8 c1 0c 3d 93 0a 8e 3d 9a 09 f6 3c
       0.04873356 0.034364372 0.069356106 0.030033875
000370 38 8b a5 bd 60 46 0e 3d 72 95 98 bd cb a4 34 bc
       -0.080831945 0.034735084 -0.074503794 -0.011025618
000380 65 c1 b4 3d de 8d 12 3d b3 46 b3 bd 8a 0c 75 bd
       0.088259496 0.035779826 -0.08753719 -0.05982641
000390 fa e9 26 3c 1e 3d 51 bd 47 b2 5c bd 29 da 75 3d
       0.01018762 -0.051083677 -0.053880956 0.060022507
0003a0 89 54 44 3d fa 38 46 bd 23 ce 52 bd 1e b1 3b 3c
       0.04793218 -0.04839418 -0.05146612 0.011455802
0003b0 f9 09 83 3d d6 86 c6 3c 21 86 47 bd 30 61 10 bd
       0.063983865 0.024234217 -0.0487119 -0.035248935
0003c0 e0 4d 25 3d 70 a9 03 bd bd 82 e1 bc 94 82 ae bd
       0.04035747 -0.03214401 -0.027528161 -0.085209996
0003d0 38 05 4a bd 4b 40 15 bc 2e 47 86 3c 06 4a cd 3b
       -0.049321383 -0.009109567 0.016391363 0.006264928
0003e0 8b 74 47 bd dc 56 86 bc 2c ed cf bc 5c 4f fd 3c
       -0.04869513 -0.01639884 -0.025381647 0.03092163
0003f0 d1 a1 1e 3d 24 97 44 3d 4f 3a 83 bd 66 84 9d bd
       0.03872854 0.0479957 -0.06407606 -0.076912686

net.2.bias f4 [128]
000000 c1 e7 9c bc 05 71 67 3c 34 7b 9f bd 06 d9 3e bd
       -0.019153478 0.014126067 -0.07787171 -0.04659369
000010 63 5f f3 bb 20 36 43 bd 6e cb 9c 3d 27 ed 81 bc
       -0.0074271425 -0.04765904 0.07655989 -0.015860153
000020 b0 fb fa 3c bb 4e ed 3c 72 37 aa bd 77 10 2a bd
       0.030637592 0.028968206 -0.083113566 -0.04151961
000030 22 d3 8f bc ee b6 a1 bd c6 75 ab bc 82 ca 40 bd
       -0.01755673 -0.07896219 -0.020930182 -0.047068126
000040 17 0a 8c 3d 67 d6 81 bc e8 ee 5a 3d 45 00 3a bd
       0.06837862 -0.015849305 0.053450495 -0.045410413
000050 7a c3 b7 bb d5 70 0e 3d f6 47 4f bd 9e de 11 bb
       -0.0056080194 0.034775574 -0.050605737 -0.0022257934
000060 9f 60 83 3d cd 3a 8a ba 6b 9c a3 bb 0c 3a 9b bd
       0.064149134 -0.0010546088 -0.0049930117 -0.07579431
000070 ed 22 5e 3d a1 83 37 3d 40 c9 25 3d 49 34 4d 3d
       0.054232527 0.044803265 0.04047513 0.05009869
000080 94 3e 48 bd 27 56 b1 3d ab df 4b bc 90 d5 ef bc
       -0.048887804 0.086590104 -0.012443463 -0.02927664
000090 59 6a 8a bd f8 8d d3 bc be 36 9d 3d 2e 19 9d 3d
       -0.067585655 -0.025824532 0.07676457 0.07670818
0000a0 b5 0a 5b 3c a5 d4 fb 3c 69 8c 8e bc 32 da 10 bd
       0.013369252 0.030741045 -0.017400937 -0.035364337
0000b0 17 a4 e1 3c 64 66 8b 3a 7a 97 96 3d 09 ba 85 bd
       0.027544064 0.0010635373 0.073531106 -0.06529624
0000c0 d1 27 4e bd cf 78 20 bd 10 3f 16 bc 88 04 80 bc
       -0.05033094 -0.039177712 -0.009170309 -0.01562716
0000d0 d0 0e 94 3c 61 98 0d bd 57 32 49 bc 5b 65 84 3d
       0.01807347 -0.034569148 -0.012280068 0.064646445
0000e0 95 eb 06 bd c9 5b a7 3b ba f7 5a 3d cc 1b b6 3d
       -0.032939512 0.005107377 0.053458907 0.088920206
0000f0 fa da 5c 3d b4 3a 9c bc 83 2c 88 3d 54 e3 86 3d
       0.05391977 -0.01907096 0.06649115 0.06586328
000100 e1 ce 4b bd 21 b3 90 3d d5 f2 cc 3c 7a 52 e7 3b
       -0.049757842 0.07065416 0.025018135 0.0070593925
000110 5d 2f 8e 3d 5b 1f 39 bc be f2 90 3d 9b c1 00 bd
       0.069426276 -0.01129898 0.070775494 -0.031434637
000120 b5 5e 3b 3d dd 48 2c bb c6 9a 84 bc c9 c2 63 bd
       0.045744617 -0.0026288547 -0.016187083 -0.055605683
000130 58 fe 81 3c 1f 35 9d 3d 5d e7 8f bd 26 2a 1c bb
       0.01586835 0.07676148 -0.07026551 -0.0023828833
000140 b9 fb 8c bc 78 9d a6 bd f1 7b a0 3c 44 0c 20 3d
       -0.017209874 -0.081355035 0.01959035 0.039074197
000150 cf 38 b9 3d d5 b5 a3 bd d6 be a7 bd 42 9d 7a bd
       0.090440385 -0.07993666 -0.08190696 -0.06118513
000160 c6 2d a7 bd ae 12 2f 3c e0 52 c0 bc 37 4e 9d 3d
       -0.081630275 0.010685606 -0.023477018 0.07680934
000170 6a ad 9a 3d e9 30 81 bd f9 be 5f 3d bf aa e3 3b
       0.07552607 -0.06308157 0.054625485 0.0069478448
000180 bf 5f 2f 3d fc 33 9c 3d 7f 08 2a bd 04 9e 6e bd
       0.04281592 0.07627103 -0.04151201 -0.058256164
000190 c5 76 02 3d 87 76 8c 3d 26 6d b3 3c d3 25 45 bd
       0.03185155 0.06858545 0.021902632 -0.048131775
0001a0 22 b1 28 3c 3b b3 3f bd a7 9a 1a bb d0 a0 21 3d
       0.010296138 -0.046801787 -0.0023590715 0.039460003
0001b0 d2 c6 51 bd ce ab 38 3d b3 0b 23 3c 62 bf aa 3d
       -0.051215 0.04508572 0.00995152 0.083372846
0001c0 85 d8 d4 3c ff 95 8f bd 58 a8 99 bd d8 28 64 3d
       0.02598215 -0.07011031 -0.07502812 0.055703014
0001d0 72 84 0e bd 6f 8e 6c bd f8 fb 58 3d f7 95 56 bd
       -0.03479428 -0.057753023 0.05297467 -0.05238911
0001e0 bf f7 37 bd 3a 7e cf 3c 21 80 f2 3c 8b 20 9f 3d
       -0.044914003 0.025328744 0.029602112 0.07769879
0001f0 62 27 18 3c 13 44 99 bd 89 22 82 bd cc d2 54 bb
       0.009286733 -0.07483687 -0.06354243 -0.0032474278

net.4.weight f4 [1, 128]
000000 87 94 98 3d 42 71 4f 3c 17 4e 6a bd 79 a4 f3 3a
       0.07450204 0.01266128 -0.05720338 0.0018588445
000010 3c 9b 9b 3d 24 0c 60 bd 4e 0b e6 3a e6 19 ca bc
       0.07597968 -0.05469908 0.0017550976 -0.024670552
000020 f3 be 7c 3d 3c 5d 26 3c 1a 6c fc 3b 56 2f aa 3d
       0.06170554 0.010154065 0.0077033164 0.0830981
000030 98 d2 8e bd 69 88 2b bd 03 5f fb 3c 4c 7e f2 3c
       -0.06973761 -0.041878138 0.030684954 0.029601239
000040 34 60 67 3d 6c c0 4d bd 3b 66 ab 3d ac 26 91 bd
       0.05648823 -0.050232336 0.08369108 -0.07087454
000050 28 08 6e 3c f9 4d ad bd 21 b2 b8 bd 84 6e a8 3d
       0.014528312 -0.08462138 -0.090183504 0.08224204
000060 68 18 a5 3d 71 e0 9f 3d b2 fe a7 3c 50 41 8a bd
       0.08061296 0.07806481 0.02050719 -0.067507386
000070 2d e1 41 bd 62 1f 93 3d 2b 5d 81 3d e7 e5 f0 3c
       -0.047333885 0.0718372 0.063165985 0.029406501
000080 1e 90 37 3d db a0 59 bd dd c6 09 3c 9f 38 46 3d
       0.044815175 -0.05313192 0.008409229 0.04839384
000090 0a 9b 4b bd 13 ed 45 3d 89 e8 91 3d ff 96 79 3d
       -0.049708404 0.048321795 0.07124431 0.060935017
0000a0 e2 10 67 3c 00 5d 3f 3d e2 6a f0 bc 00 9e 93 3d
       0.014103146 0.04671955 -0.02934784 0.072078705
0000b0 1e b9 a1 3d 93 f8 27 bd fa d1 4e bb 0f 80 87 bb
       0.078966364 -0.041008543 -0.0031558261 -0.004135139
0000c0 fb 4f fc bc 80 1b 03 bc 54 23 d8 bb 39 62 2a 3d
       -0.030799856 -0.008002162 -0.0065960083 0.04159758
0000d0 a4 31 d6 bb 7a 1c 68 3d 21 d7 6c bd cd d4 4a bc
       -0.0065366793 0.056667782 -0.05782235 -0.012379837
0000e0 fc 30 e6 bc 91 19 b8 ba 50 6e 18 bd f8 84 4b bc
       -0.02809953 -0.0014045705 -0.037214577 -0.012421839
0000f0 f6 cd 91 3d e4 81 69 3d bb 04 3b bd f1 ea b6 bc
       0.07119362 0.05700864 -0.04565881 -0.022328826
000100 f1 7f 06 bd 3e a2 8c 3d e4 60 e0 bc 08 14 e4 bc
       -0.03283686 0.06866883 -0.027389951 -0.027841583
000110 43 fc 67 bd 98 1d 71 bd 62 66 86 3d 20 3b dc bc
       -0.05663706 -0.058866113 0.06562497 -0.026883662
000120 5c f0 fc bc 65 84 94 bc f0 59 99 3d c8 d3 93 3c
       -0.030876331 -0.018129537 0.07487857 0.018045321
000130 0c a3 41 bd 7b 2d a3 3b a7 cc 0b bd b6 a1 b6 3b
       -0.047274634 0.004979787 -0.03413072 0.0055734767
000140 27 9e 43 3d 58 64 fc bc a7 2d 7b 3d 22 6b db bc
       0.047758248 -0.030809566 0.061322834 -0.026784483
000150 a7 a5 42 bd e9 55 6c 3c 84 56 8e bc cb f3 47 bd
       -0.04752126 0.014424779 -0.017375238 -0.048816483
000160 b6 b6 2f 3b 2e 6b 85 3c 31 30 a6 3c e0 31 ff 3c
       0.0026811785 0.016286459 0.020286651 0.031151712
000170 19 38 8f bd 34 a8 37 3d a3 25 77 bd 71 5d 96 bd
       -0.06993122 0.044838145 -0.060338628 -0.07342041
000180 2d 73 80 bd f8 87 51 3d 29 ea 47 3c f5 f0 b0 bd
       -0.06271968 0.05115506 0.012201824 -0.08639709
000190 8e fb 82 bc fa 1e 95 3c 15 88 a4 bd 53 d3 05 bb
       -0.015989091 0.018203247 -0.08033768 -0.0020420149
0001a0 96 86 8a 3d 68 2d 21 bd 2d 2f 4c 3d 2d e0 22 bd
       0.067639515 -0.039349943 0.049849678 -0.039764572
0001b0 37 e3 6a 3d c2 27 48 3c 5d 93 86 3d 82 df 8f bc
       0.057345595 0.01221651 0.06571076 -0.017562632
0001c0 dd 79 46 3a 97 25 2a bc 0e 8b 80 bd f1 5c b0 bc
       0.00075712596 -0.010384939 -0.062765226 -0.021528693
0001d0 1d e2 cb 3b 4a 8a 80 bd f3 d8 7e bd 0a 93 8f bd
       0.006222023 -0.062763765 -0.062218618 -0.07010467
0001e0 0c af 8d 3d 33 75 b7 bd 6a 00 4c bc a3 46 d2 bc
       0.06918153 -0.08957901 -0.012451271 -0.025668448
0001f0 74 a4 6c bd da 44 9a bd e2 f1 a2 bd 8a 60 88 3d
       -0.057774022 -0.07532664 -0.07956292 0.06659038
