models/viability_approximator_distilled.pth (torch, 71617 bytes, 5 tensors)

net.0.weight f4 [128, 2]
-0.67367226 0.81044245 0.10882591 -0.7666244 -0.1091342 0.07558306 -0.017967116 -0.28516936
-0.44079798 -0.48615292 -0.38663125 0.1262433 -0.17357777 0.17145185 -0.48590073 -0.6713876
-0.7642312 -0.17197964 0.7373851 -0.24596012 -0.105601884 0.64974535 0.71869564 0.1478456
0.2807085 -0.44189286 -0.40851632 -0.55175203 0.57515156 -0.027823305 0.32406592 0.033155493
-0.75430965 0.59981745 0.73619145 -0.27017528 0.4505573 0.5709222 0.46031082 -0.2745719
-0.0039746985 0.67494076 -0.3058022 0.046709836 -0.026000474 0.68303704 -0.327823 -0.008174196
-0.7391101 0.2673094 -0.43347466 0.20348138 0.13300972 0.30103943 0.37460384 0.5032016
-0.25744691 0.7085243 0.35985065 -0.19875257 -0.22863494 -0.49356893 0.034842975 -0.34534007
-0.34365547 -0.26405144 0.36269236 -0.35049948 -0.5353937 -0.41341233 -0.5367019 0.7193448
0.077229604 -0.67376614 0.13091458 0.72168165 -0.076306276 -0.37262836 0.0025778697 0.07082466
-0.39249763 -0.4707769 -0.033764813 0.7959883 0.6867758 -0.4524677 -0.30329794 0.61607087
-0.5703403 0.47217882 0.6146709 -0.13730428 0.80413353 -0.59628934 0.362651 0.77363634
0.7776158 0.46273586 -0.43939945 -0.18994248 -0.23520681 0.39176476 -0.46131343 0.776328
-0.44920936 -0.70473075 -0.19580108 0.4829734 -0.2327799 -0.2178863 -0.76858073 0.64739746
0.23862273 -0.42533386 -0.2676781 0.78304887 0.15092579 0.10335433 -0.24626267 -0.62920725
-0.56283504 -0.5853528 -0.12401373 0.08564754 0.70669776 0.38152704 -0.48309 0.18131907
-0.7963556 0.0002921697 -0.76001173 0.16234365 -0.49741057 0.4322293 -0.05620656 0.43188658
0.60133594 -0.11916006 -0.08579257 0.026010359 -0.6179406 -0.506541 0.56967235 -0.64388883
-0.805844 -0.18695869 -0.13224185 0.4993096 -0.6855614 0.73404825 -0.3268664 -0.33667672
0.48347566 -0.5956782 0.6234398 -0.34354815 -0.6628606 -0.2230392 -0.76983833 -0.7156283
-0.2205097 -0.011149359 0.041254643 0.67550766 0.43397108 0.26731247 0.11659318 -0.01704663
-0.5978899 -0.5108826 -0.0029307231 0.6118781 -0.78782123 -0.6744492 0.16752516 -0.10325361
0.80021787 -0.4695996 0.171167 -0.23503762 -0.10682863 -0.52735263 0.69981474 -0.80376244
-0.009817434 -0.0049461853 -0.42827168 0.14763889 0.20768799 0.31940624 -0.48270857 -0.75576746
0.54291946 -0.1555419 0.34774297 -0.5073208 0.1418612 0.3902592 -0.20527293 0.21046223
-0.75727654 0.52991116 -0.23773615 -0.29517707 -0.09204736 -0.37669328 -0.12832409 0.16083777
-0.054685652 -0.40742007 -0.25038582 -0.64005387 -0.19376476 0.5933964 -0.5266953 0.1984772
0.22424002 0.22762147 0.76883847 -0.11922662 0.5460004 0.5013709 0.7700781 -0.08776883
-0.41190884 -0.3083691 -0.61401767 0.54904634 -0.118210174 -0.62370807 -0.25363252 0.5541921
-0.7306537 0.09160861 0.056213107 -0.07369106 0.056646954 0.29496196 -0.25713634 0.3788692
0.70869464 -0.39553323 0.31828907 0.44289386 -0.085834004 -0.21001779 -0.7653836 0.35997263
-0.17358659 -0.08363469 0.13971214 -0.76291436 -0.69968265 0.23407194 0.60178494 0.8013788
00000000: c975 2cbf 2879 4f3f 1ee0 de3d 7f41 44bf
00000010: c081 dfbd 4bcb 9a3d c62f 93bc b801 92be
00000020: 46b0 e1be 09e9 f8be 88f4 c5be ec45 013e
00000030: 5fbe 31be 1391 2f3e fbc7 f8be 0fe0 2bbf
00000040: a8a4 43bf 6e1b 30be 45c5 3c3f f8dc 7bbe
00000050: cd45 d8bd b655 263f 70fc 373f d664 173e
00000060: 06b9 8f3e c83f e2be 0d29 d1be 9f3f 0dbf
00000070: 223d 133f b3ed e3bc f8eb a53e 0ece 073d
00000080: 701a 41bf a38d 193f 0b77 3c3f 6a54 8abe
00000090: 72af e63e f527 123f dcad eb3e b094 8cbe
000000a0: 303e 82bb ebc8 2c3f 1b92 9cbe d052 3f3d
000000b0: f2fe d4bc 84db 2e3f 6bd8 a7be 10ed 05bc
000000c0: 5236 3dbf c7dc 883e 64f0 ddbe 6c5d 503e
000000d0: b333 083e d721 9a3e 13cc bf3e d2d1 003f
000000e0: 15d0 83be d961 353f 583e b83e cb85 4bbe
000000f0: 471f 6abe 11b5 fcbe 82b7 0e3d 6ad0 b0be
00000100: 9cf3 afbe c031 87be d0b2 b93e ab74 b3be
00000110: 900f 09bf c8aa d3be 4c65 09bf fb26 383f
00000120: 8e2a 9e3d f07b 2cbf 790e 063e 21c0 383f
00000130: 7746 9cbd 25c9 bebe 7af1 283b 850c 913d
00000140: 73f5 c8be ab09 f1be f94c 0abd e4c5 4b3f
00000150: 8ad0 2f3f d9a9 e7be de49 9bbe d2b6 1d3f
00000160: d201 12bf 6cc1 f13e 125b 1d3f 7e99 0cbe
00000170: b2db 4d3f 6ba6 18bf 64ad b93e 080d 463f
00000180: d411 473f b7eb ec3e f7f8 e0be 4880 42be
00000190: 0eda 70be 6495 c83e 4631 ecbe 6fbd 463f
000001a0: c5fe e5be 3c69 34bf 1480 48be 4a48 f73e
000001b0: db5d 6ebe 961d 5fbe b5c1 44bf d7bb 253f
000001c0: 8459 743e 5cc5 d9be 1b0d 89be e475 483f
000001d0: 4a8c 1a3e 6fab d33d 482c 7cbe ba13 21bf
000001e0: f515 10bf aed9 15bf e9fa fdbd fa67 af3d
000001f0: 25ea 343f 8357 c33e 9357 f7be b5ab 393e
00000200: f6dd 4bbf 5a2e 9939 2190 42bf 6a3d 263e
00000210: 99ac febe 294d dd3e da38 66bd 3d20 dd3e
00000220: 27f1 193f 310a f4bd 04b4 afbd ad13 d53c
00000230: 5b31 1ebf acac 01bf 0cd6 113f e6d5 24bf
00000240: cb4b 4ebf 1972 3fbe 686a 07be 82a5 ff3e
00000250: f480 2fbf 96ea 3b3f 085b a7be e460 acbe
00000260: 1f8a f73e 5e7e 18bf c099 1f3f 8be5 afbe
00000270: 3bb1 29bf 6364 64be 2014 45bf 6b33 37bf
00000280: 4bcd 61be cdab 36bc a1fa 283d 12ee 2c3f
00000290: 7531 de3e 2edd 883e 68c8 ee3d 60a5 8bbc
000002a0: 500f 19bf 34c9 02bf 6011 40bb 0ba4 1c3f
000002b0: a7ae 49bf b4a8 2cbf b78b 2b3e a176 d3bd
000002c0: 14db 4c3f 5c6f f0be 6746 2f3e b4ad 70be
000002d0: f8c8 dabd 9500 07bf 0f27 333f 60c3 4dbf
000002e0: 4dd9 20bc 9c13 a2bb 6d46 dbbe a62e 173e
000002f0: 29ac 543e 3789 a33e 9425 f7be fa79 41bf
00000300: c5fc 0a3f 6046 1fbe 5e0b b23e c7df 01bf
00000310: 1044 113e 0ed0 c73e 1133 52be 6983 573e
00000320: e0dc 41bf 42a8 073f 1b71 73be 7321 97be
00000330: 5483 bcbd f1dd c0be 6467 03be a8b2 243e
00000340: 10fe 5fbd 5d99 d0be 9232 80be 92da 23bf
00000350: 456a 46be d4e8 173f 81d5 06bf 9b3d 4b3e
00000360: 2d9f 653e 9a15 693e 99d2 443f 162d f4bd
00000370: afc6 0b3f d859 003f d723 453f 25c0 b3bd
00000380: b7e5 d2be 8ee2 9dbe 4330 1dbf 4d8e 0c3f
00000390: 2d18 f2bd 55ab 1fbf 1fdc 81be 89df 0d3f
000003a0: 1f0c 3bbf 4b9d bb3d b73f 663d 57eb 96bd
000003b0: a306 683d 4105 973e 60a7 83be 25fb c13e
000003c0: 036d 353f 5583 cabe c9f6 a23e fcc2 e23e
000003d0: bdc9 afbd e70e 57be 2ef0 43bf 554e b83e
000003e0: afc0 31be aa48 abbd b310 0f3e 5b4e 43bf
000003f0: 671e 33bf 8eb0 6f3e 940e 1a3f 2927 4d3f

net.0.bias f4 [128]
-0.4966622 0.22746174 0.5436758 -0.3342337 0.018006904 0.045060974 0.61454314 0.76885563
-0.12427672 -0.56188816 -0.10919846 -0.027397363 -0.19533783 0.74884003 0.09809468 -0.49960765
-0.036630616 -0.14197445 0.64602745 0.051795367 -0.02073249 -0.65934855 0.62907714 0.31213406
-0.30220085 0.6717023 -0.5975402 0.61753047 0.05977646 -0.024159811 0.5389019 0.50788105
-0.15958603 -0.04631431 0.6029101 0.2788174 -0.14626975 0.15013653 -0.6694473 -0.30351624
0.0797805 -0.33322495 -0.3031539 0.021186668 0.7119336 0.14282522 -0.52953494 0.28936687
0.3773198 -0.018285904 0.34321198 -0.49217445 -0.2996305 0.46909332 -0.66160244 -0.30431145
-0.6806813 -0.15951152 0.71564656 0.65909207 0.15320261 -0.3597408 0.11797104 -0.10501834
-0.2874072 -0.44309527 0.047671877 0.58971006 0.70689297 0.7269548 0.7806776 0.7527475
-0.48968363 0.03688836 0.37495255 -0.16064721 -0.15376383 -0.38945693 0.013101666 0.06432791
-0.4303018 -0.09546163 -0.05515056 -0.244945 -0.03774531 -0.65923315 -0.4189784 0.51168245
-0.14450935 -0.090363756 -0.1235119 -0.38955653 -0.5861975 -0.1479635 0.6803771 -0.45139673
-0.70978296 -0.10162988 0.64173836 -0.6461847 -0.093623735 -0.03190152 -0.49288985 -0.4039274
0.5477198 -0.05259262 0.11777742 0.65480846 0.3257583 -0.2344782 -0.34738824 -0.022968505
-0.21262552 0.047021996 -0.26940638 0.66341335 -0.1017589 -0.4265347 0.27956045 0.118128836
-0.21282206 -0.1121711 0.73971814 -0.47626024 -0.33970654 0.6894494 -0.099761315 0.46962258
00000000: 824a febe bbeb 683e 562e 0b3f ae20 abbe
00000010: 3783 933c db91 383d b352 1d3f b9d3 443f
00000020: cb84 febd e7d7 0fbf 71a3 dfbd 6f70 e0bc
00000030: a406 48be fbb3 3f3f dde5 c83d 93cc ffbe
00000040: fc09 16bd c061 11be 0e62 253f 6127 543d
00000050: 2fd7 a9bc 11cb 28bf 330b 213f 09d0 9f3e
00000060: 12ba 9abe aff4 2b3f 65f8 18bf 7a16 1e3f
00000070: 29d8 743d ccea c5bc 7af5 093f 7e04 023f
00000080: 856a 23be 13b4 3dbd 5158 1a3f 27c1 8e3e
00000090: bdc7 15be 64bd 193e e660 2bbf 7b66 9bbe
000000a0: f563 a33d 769c aabe fd36 9bbe aa8f ad3c
000000b0: 4841 363f c640 123e 9a8f 07bf e527 943e
000000c0: 1030 c13e 52cc 95bc 7bb9 af3e 4afe fbbe
000000d0: 2b69 99be 002d f03e c75e 29bf b6ce 9bbe
000000e0: 2141 2ebf fd56 23be 9d34 373f 42ba 283f
000000f0: 25e1 1c3e f22f b8be cd9a f13d db13 d7bd
00000100: 0927 93be 62dd e2be 9643 433d 3df7 163f
00000110: f0f6 343f b619 3a3f 7dda 473f 0fb4 403f
00000120: d0b7 fabe 4018 173d c8f9 bf3e b480 24be
00000130: 4474 1dbe e666 c7be 5fa8 563c 5abe 833d
00000140: 8450 dcbe 6381 c3bd 8ee5 61bd ddd2 7abe
00000150: d49a 1abd 81c3 28bf 5684 d6be 9ffd 023f
00000160: 42fa 13be a210 b9bd cff3 fcbd f473 c7be
00000170: 0a11 16bf be83 17be 322d 2e3f 791d e7be
00000180: 56b4 35bf 5423 d0bd f748 243f 5c6c 25bf
00000190: cdbd bfbd 2bab 02bd 0f5c fcbe 92cf cebe
000001a0: 5d37 0c3f 5c6b 57bd 4a35 f13d 87a1 273f
000001b0: cbc9 a63e 0e1b 70be dfdc b1be 7228 bcbc
000001c0: 81ba 59be 239a 403d a2ef 89be 75d5 293f
000001d0: f866 d0bd c262 dabe 8c22 8f3e 88ed f13d
000001e0: 07ee 59be f6b9 e5bd 2b5e 3d3f 62d8 f3be
000001f0: 04ee adbe c27f 303f a94f ccbd 5f72 f03e

net.2.weight f4 [128, 128]
-0.08225942 0.06435223 0.010492803 0.035751328 -0.037389405 -0.03955603 -0.01126357 -0.066359356
0.0785285 0.08355096 0.052700903 -0.045417566 0.04021742 -0.07779163 -0.07822147 0.07019919
-0.06378613 -0.016000979 -0.031413656 -0.09013049 0.06816933 -0.027732098 0.0580411 0.03838335
0.07279631 0.06406592 -0.08140636 -0.027821517 -0.047832463 -0.06643719 0.038460866 0.027672457
0.03686809 0.009505461 -0.03679231 -0.06474087 0.007751107 0.013422406 -0.07192808 0.08227089
0.07367783 -0.087882176 0.06717315 -0.051378723 -0.012404096 -0.003028286 0.016046338 -0.06650427
0.033552554 -0.09311339 -0.08484701 -0.050961986 0.020292033 0.0032254667 0.03453066 -0.010503795
0.06702629 0.06407686 -0.013838612 0.014550093 -0.02898272 -0.04505299 -0.084152386 0.010959434
-0.01078992 0.07153437 -0.041281413 -0.034579307 0.0659467 -0.016873524 0.014293904 -0.09276307
-0.016416745 -0.04280589 -0.07391882 -0.06141349 -0.024899611 0.022487767 0.0270597 -0.02736591
-0.072706066 -0.043706387 -0.06562364 -0.018917002 -0.0015935666 0.06022221 -0.0112555055 0.0668113
-0.051571228 -0.05821841 -0.030975001 0.026838776 -0.014408374 0.027059888 0.028427705 -0.06484325
0.080277435 -0.05241907 0.03957543 -0.07638246 -0.088343196 -0.027958773 0.0056180484 0.07576759
0.018136824 -0.08014232 -0.019536065 0.008351129 0.031641513 0.067936115 0.0057846024 -0.052454755
-0.009112876 -0.013399129 -0.072530046 0.061191555 -0.044628665 -0.0076459018 -0.081890725 -0.06764932
0.07940399 -0.028113443 0.02202114 -0.043716416 -0.08198377 -0.04377694 -0.055048328 -0.015512826
0.039236266 0.111622125 -0.026360476 -0.041621234 0.11355217 0.15803592 -0.0030429477 0.042419154
0.08044361 0.17036027 0.14668526 0.0881576 0.083608665 0.064419955 -0.011623741 -0.015040324
0.12463891 0.12817548 -0.14981346 0.06019709 0.074015334 -0.075825326 -0.010708437 0.030585073
0.19217724 0.0229194 0.05105685 -0.15625653 -0.031125061 0.059576143 -0.013906026 0.032688454
0.104452856 -0.00960067 0.045850486 -0.08144734 0.05668802 0.05888442 -0.06902415 -0.0825169
0.13873638 4.4919434e-05 0.06457259 0.046683896 -0.007328665 0.12968278 0.088135324 0.029976752
-0.05533912 0.0014452196 -0.07295397 0.16505341 0.1095042 -0.008177996 0.02581779 0.03949751
0.00070853066 0.08829643 0.033425495 -0.033626843 0.13290104 -0.0710596 0.012987673 0.03526282
0.16055925 0.10521126 0.10893223 -0.073259205 0.07639585 0.007742721 0.11553163 0.034872644
0.06913689 -0.05523085 -0.0721026 0.16918363 0.13641721 0.054448735 0.008592796 0.046111654
0.006068356 0.05883917 0.021099828 0.08011262 0.10157324 -0.031534452 0.066072725 -0.032289546
0.12146537 0.035254706 0.08717215 0.12697859 0.04550593 0.13025796 -0.02251141 0.03269265
-0.029258741 0.011585417 -0.13814656 -0.019763952 0.17930222 0.14891206 0.0085592875 0.07365561
-0.045850627 0.08830595 -0.039093543 -0.09782443 -0.022116734 0.13586406 0.17998552 0.02864909
0.12825361 0.025989437 0.086593024 -0.06457399 0.10062319 -0.022338925 -0.1477354 0.004145972
0.012024906 0.024520144 -0.036282983 0.20054938 -0.08231858 0.10022531 0.037156343 -0.11765513
00000000: a077 a8bd 1acb 833d 01ea 2b3c fc6f 123d
00000010: a225 19bd 8105 22bd d68a 38bc 6ae7 87bd
00000020: 8dd3 a03d c41c ab3d e7dc 573d c507 3abd
00000030: 05bb 243d 3851 9fbd 9432 a0bd 98c4 8f3d
00000040: 4da2 82bd 7c14 83bc 9bab 00bd 5696 b8bd
00000050: 5d9c 8b3d 6d2e e3bc 81bc 6d3d dc37 1d3d
00000060: 3b16 953d fe34 833d 61b8 a6bd f3e9 e3bc
00000070: f9eb 43bd 3910 88bd 2489 1d3d 59b1 e23c
00000080: ff02 173d cbbc 1b3c 89b3 16bd dc96 84bd
00000090: 00fd fd3b a7e9 5b3c 074f 93bd a47d a83d
000000a0: 67e4 963d 92fb b3bd 1492 893d 7f72 52bd
000000b0: 8d3a 4bbc 3576 46bb 9c73 833c 6433 88bd
000000c0: 676e 093d 3cb2 bebd 45c4 adbd 84bd 50bd
000000d0: 7a3b a63c 5a62 533b 0570 0d3d 1c18 2cbc
000000e0: 1445 893d bb3a 833d 58bb 62bc 8363 6e3c
000000f0: 2b6d edbc 7c89 38bd 1658 acbd 338f 333c
00000100: 34c8 30bc 9d80 923d b316 29bd 08a3 0dbd
00000110: 100f 873d 583a 8abc fb30 6a3c 90fa bdbd
00000120: 697c 86bc 3b55 2fbd c062 97bd b68c 7bbd
00000130: 45fa cbbc 4438 b83c 4eac dd3c 792e e0bc
00000140: ebe6 94bd 7805 33bd b065 86bd d4f7 9abc
00000150: 39df d0ba 90ab 763d 0369 38bc 5dd4 883d
00000160: 5a3c 53bd 6d76 6ebd 49bf fdbc fedc db3c
00000170: 1a11 6cbc b3ac dd3c 38e1 e83c 8acc 84bd
00000180: 7f68 a43d 61b5 56bd d919 223d 686e 9cbd
00000190: 47ed b4bd cc09 e5bc 9b17 b83b 0a2c 9b3d
000001a0: ad93 943c a821 a4bd 190a a0bc 2cd3 083c
000001b0: 889a 013d 1722 8b3d c38c bd3b ccda 56bd
000001c0: 2c4e 15bc 0588 5bbc a28a 94bd ffa3 7a3d
000001d0: 8ccc 36bd 798a fabb 53b6 a7bd ba8b 8abd
000001e0: 8f9e a23d 2a4e e6bc ae65 b43c fc0f 33bd
000001f0: 1be7 a7bd 734f 33bd 5b7a 61bd 8229 7ebc
00000200: 35b6 203d 249a e43d edf1 d7bc 077b 2abd
00000210: 0a8e e83d 2bd4 213e 316c 47bb b5bf 2d3d
00000220: 9fbf a43d ec72 2e3e a934 163e f98b b43d
00000230: 053b ab3d 9cee 833d 8171 3ebc b16b 76bc
00000240: af42 ff3d 6f40 033e b368 19be 3991 763d
00000250: 5a95 973d 4f4a 9bbd 7172 2fbc 8c8d fa3c
00000260: 1cca 443e 77c1 bb3c fd20 513d b601 20be
00000270: fcf9 febc 1d06 743d 1ad6 63bc 54e4 053d
00000280: 61eb d53d 214c 1dbc b8cd 3b3d ddcd a6bd
00000290: b231 683d ca30 713d 895c 8dbd 9ffe a8bd
000002a0: e910 0e3e e067 3c38 a23e 843d 9d37 3f3d
000002b0: 4c25 f0bb 90cb 043e 4b80 b43d ce91 f53c
000002c0: 46ab 62bd 866d bd3a e468 95bd c303 293e
000002d0: bd43 e03d 00fd 05bc d47f d33c 24c8 213d
000002e0: b0bc 393a c2d4 b43d 2ce9 083d 4dbc 09bd
000002f0: 3617 083e b287 91bd 40ca 543c bf6f 103d
00000300: a569 243e 0079 d73d dc17 df3d ec08 96bd
00000310: 6d75 9c3d a7b6 fd3b d99b ec3d 9ed6 0e3d
00000320: a497 8d3d be39 62bd 87aa 93bd 793e 2d3e
00000330: f4b0 0b3e a305 5f3d ccc8 0c3c 93df 3c3d
00000340: 0fd9 c63b 5701 713d 8cd9 ac3c 1612 a43d
00000350: a105 d03d 452a 01bd 2351 873d 0b42 04bd
00000360: d6c2 f83d 3d67 103d 5087 b23d ad06 023e
00000370: 6d64 3a3d 5862 053e d969 b8bc bae8 053d
00000380: 07b0 efbc c3d0 3d3c 4b76 0dbe 03e8 a1bc
00000390: 009b 373e 677c 183e 413c 0c3c c1d8 963d
000003a0: decd 3bbd c0d9 b43d 8d20 20bd 2d58 c8bd
000003b0: 272e b5bc f31f 0b3e 204e 383e 7fb1 ea3c
000003c0: ea54 033e cde7 d43c af57 b13d 5e3f 84bd
000003d0: 8813 ce3d 1f00 b7bc f347 17be efda 873b
000003e0: 1d04 453c 78de c83c 779d 14bd d15c 4d3e
000003f0: a596 a8bd ed42 cd3d 4031 183d 2cf5 f0bd

net.2.bias f4 [128]
0.0077544963 0.022849934 0.066736765 0.004219932 0.036954787 -0.047717854 0.056613542 -0.012440842
0.043917533 0.037492756 0.13997945 0.032087784 -0.10552405 -0.02056008 0.024628902 0.024819052
-0.09956634 -0.07909317 -0.0724024 0.07082864 0.00617842 0.027179467 -0.031458084 -0.104144566
0.12019531 0.13915944 0.03441265 0.026170459 -0.08899727 -0.094817035 -0.10929033 0.051741883
-0.04457689 -0.08916557 0.07149541 -0.084370196 -0.012901216 -0.100523695 -0.036278393 -0.044981316
-0.09181889 0.041568317 -0.035376977 -0.08614557 -0.06715982 0.10430101 -0.06971394 -0.0178539
0.06929073 0.15422311 0.10981328 -0.035090655 0.08790017 0.023408981 0.11106093 0.12955661
-0.07930611 -0.06957877 0.050554164 -0.06961936 -0.08741693 -0.10888119 0.019723458 0.08871795
-0.03553642 -0.057424266 -0.100458205 0.11198026 0.027809441 0.059373662 0.0455444 0.14836068
-0.019285478 -0.077855304 0.0060746237 -0.08414248 -0.0054299883 0.10575948 -0.07358749 -0.039583962
0.16350417 0.011965427 0.030714592 -0.077127405 -0.017567918 -0.090426184 0.12448085 0.015113041
-0.057172094 -0.07822001 -0.07595624 0.044478748 0.12384132 -0.069466114 -0.08302991 -0.06671006
-0.08285435 0.04737529 0.008740607 0.045251936 0.02534536 -0.062246114 -0.026425174 -0.036738005
0.059238825 0.054343462 -0.09809406 0.10177534 -0.12333831 0.0493441 -0.0045158057 -0.057178654
0.048136406 0.02008101 0.06551617 0.02188194 -0.008045296 -0.050072536 -0.08760651 0.073486805
-0.111997716 0.0012815617 -0.018144395 0.0034238803 0.06270977 0.056235194 0.052569296 0.09494893
00000000: 6e19 fe3b c92f bb3c 49ad 883d 5b47 8a3b
00000010: e75d 173d cc73 43bd 9ae3 673d acd4 4bbc
00000020: dfe2 333d 0192 193d c656 0f3e 7b6e 033d
00000030: fe1c d8bd 9d6d a8bc 8dc2 c93c 5351 cb3c
00000040: 70e9 cbbd 9afb a1bd b647 94bd 9b0e 913d
00000050: 5874 ca3b 79a7 de3c 31da 00bd bf49 d5bd
00000060: f528 f63d d07f 0e3e 47f4 0c3d 6e63 d63c
00000070: 3344 b6bd 6f2f c2bd 9cd3 dfbd 4cef 533d
00000080: 4296 36bd 709c b6bd 2f6c 923d 48ca acbd
00000090: 9f5f 53bc 5edf cdbd a798 14bd 543e 38bd
000000a0: 8b0b bcbd 8a43 2a3d 73e7 10bd 176d b0bd
000000b0: 168b 89bd c59b d53d 2fc6 8ebd 5842 92bc
000000c0: 4ce8 8d3d aaec 1d3e c9e5 e03d 38bb 0fbd
000000d0: 0105 b43d 31c4 bf3c ea73 e33d 7daa 043e
000000e0: 3e6b a2bd 507f 8ebd e211 4f3d 9894 8ebd
000000f0: a607 b3bd 1afd debd 1793 a13c c2b1 b53d
00000100: a38e 11bd b535 6bbd 08bd cdbd e855 e53d
00000110: a0d0 e33c cc31 733d c48c 3a3d ddeb 173e
00000120: 94fc 9dbc 9a72 9fbd a30d c73b e452 acbd
00000130: 0bee b1bb 6d98 d83d 0ab5 96bd cb22 22bd
00000140: a36d 273e a30a 443c 2b9d fb3c f9f4 9dbd
00000150: 98ea 8fbc 5d31 b9bd d1ef fe3d b09c 773c
00000160: 492d 6abd d031 a0bd f28e 9bbd 592f 363d
00000170: 85a0 fd3d 4044 8ebd 960b aabd 499f 88bd
00000180: 8baf a9bd 980c 423d c334 0f3c 185a 393d
00000190: 13a1 cf3c c8f5 7ebd 9b79 d8bc 977a 16bd
000001a0: 69a4 723d 4097 5e3d 8ae5 c8bd 976f d03d
000001b0: cc98 fcbd 0a1d 4a3d 53f9 93bb 2a34 6abd
000001c0: ae2a 453d ee80 a43c 572d 863d c141 b33c
000001d0: 6bd0 03bc dc18 4dbd 0b6b b3bd 4080 963d
000001e0: 0f5f e5bd 13fa a73a 8ea3 94bc 2e63 603b
000001f0: fb6d 803d e056 663d e752 573d 9674 c23d

net.4.weight f4 [1, 128]
-0.06488544 -0.17830224 -0.0046187993 -0.06438394 -0.14698876 -0.13614745 -0.055568144 -0.17260636
0.008799914 -0.13496967 0.17402889 -0.004535422 -0.116354436 -0.11901568 -0.16964649 -0.17545183
-0.14891532 0.06007958 -0.007891998 -0.045363843 -0.18161076 0.037998322 0.059328754 -0.17493996
0.10281242 0.15926422 0.05691975 -0.18493715 -0.1557461 -0.12417094 -0.1488911 -0.10741954
0.035945415 -0.18025622 0.1442693 -0.16722754 -0.14686848 0.033141494 -0.15101421 0.068893656
0.05834767 -0.11457771 -0.17200407 -0.11442326 0.052097343 0.09235289 0.02855612 0.018210853
0.12707809 0.10811168 0.16400376 0.027986597 0.053939473 -0.12094622 0.1369197 0.104535796
0.055610996 -0.029657356 0.037281524 -0.12964168 -0.16132526 -0.18024923 -0.17177516 0.09846993
-0.1769723 0.0578927 -0.11841836 0.14769004 -0.14090045 0.0004716268 -0.004624778 0.118505485
-0.1575782 0.08809689 -0.11241573 -0.14139795 -0.12279978 0.07432939 0.040766202 -0.048119258
0.1107503 -0.12627792 0.1366513 -0.17218062 -0.11948511 -0.10861406 0.16086954 -0.17139155
-0.05177933 -0.10535818 -0.125892 -0.12761253 0.17794524 -0.16833729 -0.1453107 -0.17047384
-0.13381402 0.11443012 -0.19030644 -0.09195779 -0.14167923 -0.1370062 -0.10803174 0.02892732
0.008014218 0.05086232 0.010323191 0.14905745 -0.10642154 0.13644746 0.027167538 0.009921196
-0.19456549 0.002657099 -0.14611435 0.0258607 0.082110696 -0.17392454 0.044861004 0.12247097
-0.16260166 -0.155977 -0.13440192 0.020274423 0.030723544 0.016844211 -0.16358788 0.1546926
00000000: a8e2 84bd dd94 36be 4c59 97bb badb 83bd
00000010: 3984 16be 3d6a 0bbe 6c9b 63bd b9bf 30be
00000020: 842d 103c 7d35 0abe a134 323e e19d 94bb
00000030: 3c4b eebd 7ebe f3bd cfb7 2dbe a5a9 33be
00000040: 427d 18be 0116 763d 704d 01bc 70cf 39bd
00000050: 2cf8 39be 21a4 1b3d b502 733d 7623 33be
00000060: 518f d23d 2916 233e af24 693d 2a60 3dbe
00000070: e87b 1fbe 554d febd e976 18be c7fe dbbd
00000080: 803b 133d 1695 38be 55bb 133e b23d 2bbe
00000090: b164 16be 60bf 073d 78a3 1abe 1e18 8d3d
000000a0: f7fd 6e3d b8a7 eabd d621 30be be56 eabd
000000b0: 0664 553d 8323 bd3d 86ee e93c ed2e 953c
000000c0: c220 023e a869 dd3d 9af0 273e 2644 e53c
000000d0: a3ef 5c3d a7b2 f7bd ae34 0c3e dd16 d63d
000000e0: 5bc8 633d fcf3 f2bc 83b4 183d cac0 04be
000000f0: 7332 25be 4193 38be d4e5 2fbe 9aaa c93d
00000100: 3a38 35be e520 6d3d 5385 f2bd 0f3c 173e
00000110: 3548 10be ad44 f739 738b 97bb 01b3 f23d
00000120: 2e5c 21be 246c b43d 383a e6bd a0ca 10be
00000130: 737e fbbd 023a 983d 76fa 263d b318 45bd
00000140: 0ed1 e23d 004f 01be 52ee 0b3e 1e50 30be
00000150: 9cb4 f4bd 0c71 debd fcba 243e 4481 2fbe
00000160: 9016 54bd 08c6 d7bd d5e9 00be dcac 02be
00000170: 4737 363e 9c60 2cbe 54cc 14be b290 2ebe
00000180: 8b06 09be 575a ea3d b1df 42be 5e54 bcbd
00000190: 5c14 11be 5a4b 0cbe bf3f ddbd fdf8 ec3c
000001a0: 114e 033c 0255 503d 9a22 293c 84a2 183e
000001b0: 89f3 d9bd e2b8 0b3e 758e de3c 838c 223c
000001c0: 2d3c 47be b922 2e3b 009f 15be d2d9 d33c
000001d0: a729 a83d 4619 32be 2cc0 373d 0fd2 fa3d
000001e0: 0d81 26be 6fb8 1fbe a8a0 09be 8c16 a63c
000001f0: f1af fb3c dffc 893c 9583 27be bd67 1e3e
